DenseFuse_net(
  (conv1): ConvLayer(
    (reflection_pad): ReflectionPad2d((1, 1, 1, 1))
    (conv2d): Conv2d(1, 16, kernel_size=(3, 3), stride=(1, 1))
    (dropout): Dropout2d(p=0.5, inplace=False)
  )
  (DB1): DenseBlock(
    (denseblock): Sequential(
      (0): DenseConv2d(
        (dense_conv): ConvLayer(
          (reflection_pad): ReflectionPad2d((1, 1, 1, 1))
          (conv2d): Conv2d(16, 16, kernel_size=(3, 3), stride=(1, 1))
          (dropout): Dropout2d(p=0.5, inplace=False)
        )
      )
      (1): DenseConv2d(
        (dense_conv): ConvLayer(
          (reflection_pad): ReflectionPad2d((1, 1, 1, 1))
          (conv2d): Conv2d(32, 16, kernel_size=(3, 3), stride=(1, 1))
          (dropout): Dropout2d(p=0.5, inplace=False)
        )
      )
      (2): DenseConv2d(
        (dense_conv): ConvLayer(
          (reflection_pad): ReflectionPad2d((1, 1, 1, 1))
          (conv2d): Conv2d(48, 16, kernel_size=(3, 3), stride=(1, 1))
          (dropout): Dropout2d(p=0.5, inplace=False)
        )
      )
    )
  )
  (conv1_1): ConvLayer(
    (reflection_pad): ReflectionPad2d((1, 1, 1, 1))
    (conv2d): Conv2d(1, 16, kernel_size=(3, 3), stride=(1, 1))
    (dropout): Dropout2d(p=0.5, inplace=False)
  )
  (DB2): DenseBlock(
    (denseblock): Sequential(
      (0): DenseConv2d(
        (dense_conv): ConvLayer(
          (reflection_pad): ReflectionPad2d((1, 1, 1, 1))
          (conv2d): Conv2d(16, 16, kernel_size=(3, 3), stride=(1, 1))
          (dropout): Dropout2d(p=0.5, inplace=False)
        )
      )
      (1): DenseConv2d(
        (dense_conv): ConvLayer(
          (reflection_pad): ReflectionPad2d((1, 1, 1, 1))
          (conv2d): Conv2d(32, 16, kernel_size=(3, 3), stride=(1, 1))
          (dropout): Dropout2d(p=0.5, inplace=False)
        )
      )
      (2): DenseConv2d(
        (dense_conv): ConvLayer(
          (reflection_pad): ReflectionPad2d((1, 1, 1, 1))
          (conv2d): Conv2d(48, 16, kernel_size=(3, 3), stride=(1, 1))
          (dropout): Dropout2d(p=0.5, inplace=False)
        )
      )
    )
  )
  (conv2): ConvLayer(
    (reflection_pad): ReflectionPad2d((1, 1, 1, 1))
    (conv2d): Conv2d(64, 64, kernel_size=(3, 3), stride=(1, 1))
    (dropout): Dropout2d(p=0.5, inplace=False)
  )
  (conv3): ConvLayer(
    (reflection_pad): ReflectionPad2d((1, 1, 1, 1))
    (conv2d): Conv2d(64, 32, kernel_size=(3, 3), stride=(1, 1))
    (dropout): Dropout2d(p=0.5, inplace=False)
  )
  (conv4): ConvLayer(
    (reflection_pad): ReflectionPad2d((1, 1, 1, 1))
    (conv2d): Conv2d(32, 16, kernel_size=(3, 3), stride=(1, 1))
    (dropout): Dropout2d(p=0.5, inplace=False)
  )
  (conv5): ConvLayer(
    (reflection_pad): ReflectionPad2d((1, 1, 1, 1))
    (conv2d): Conv2d(16, 1, kernel_size=(3, 3), stride=(1, 1))
    (dropout): Dropout2d(p=0.5, inplace=False)
  )
)
  0%|          | 0/40 [00:00<?, ?it/s]Start training.....
Epoch 0.....
BATCH SIZE 1.
Train images number 460.
Train images samples 460.0.

best, loss : 10237
Tue Jan 10 12:22:53 2023	Epoch 1:	[5/460]	 pixel loss: 16491.969128	 ssim loss: 1.805712	 total: 18297.681185:   0%|          | 0/40 [00:05<?, ?it/s]
…
